model_prediksi_konsumen.tflite (tflite, 2868 bytes, 5 tensors)

arith.constant f4 [1, 8]
-0.5204786 1.1212695 0.62997234 0.96355915 -0.87580353 -0.8743475 0.48261887 0.23128252
00000000: 163e 05bf c285 8f3f de45 213f d0ab 763f
00000010: a934 60bf 3dd5 5fbf d219 f73e 53d5 6c3e

arith.constant1 f4 [8, 16]
-0.4835471 0.5419708 0.042588953 -0.42308402 0.28330472 0.942747 0.0040839403 0.41953793
0.74270004 0.39374352 -0.28924602 0.061482046 -0.40173003 -0.16548355 -0.037600353 -0.31435704
0.2855859 -0.26874268 0.63061744 -0.37884057 0.66608614 0.016952213 -0.411686 -0.2001415
-0.9935533 0.4412184 0.08556497 -0.20802078 -0.73145187 -0.032192085 -0.4286181 -0.12075112
0.2853184 -0.020415902 0.12771136 -0.34501186 -0.41929883 -0.39079323 -0.28694397 0.18667002
0.08561002 0.059195008 -0.37692693 -0.00805341 0.47721717 0.43655822 -0.35823604 -0.060266282
0.36072823 0.23591343 0.32856503 0.63973117 0.29260153 0.22582127 0.2566497 -0.30187187
-0.1877242 0.32337326 0.6745314 -0.5721861 0.099153996 0.63329136 0.29026705 0.35412875
-0.5179319 0.33954158 -0.74767894 -0.4506097 -0.5416071 0.55577016 0.30602667 0.73237807
0.3869504 0.013195779 0.12017458 0.66096264 -0.14272489 0.31185243 0.021289315 -0.033026733
0.07877072 0.35461265 -0.3110503 -0.118045196 -0.54622877 0.5267185 0.05482166 0.41668686
0.61791444 0.2647662 -0.6539566 0.39396852 0.21376422 0.04321132 -0.46884027 -0.6069885
0.46611494 -0.037790675 0.052281484 -0.060550917 0.6181746 0.43410948 -0.1098976 0.066078
-0.44587237 -0.12632117 0.20194307 -0.16687742 -0.44633138 -0.46068314 -0.6840244 0.18520255
0.017839 -0.16472916 0.22623238 0.57924634 0.4661454 -0.24280642 -0.20791261 -0.0866582
0.36292905 -0.45888492 0.3276792 -0.14303277 0.38760114 0.3258454 0.53903896 0.55294305
00000000: 7c93 f7be 99be 0a3f c171 2e3d 789e d8be
00000010: 510d 913e de57 713f 93d2 853b adcd d63e
00000020: 9721 3e3f c098 c93e 0e18 94be 99d4 7b3d
00000030: 8faf cdbe 8574 29be d402 1abd 68f3 a0be
00000040: 5138 923e a498 89be 2570 213f 64f7 c1be
00000050: 9f84 2a3f 5edf 8a3c 82c8 d2be e5f1 4cbe
00000060: 8259 7ebf 61e7 e13e b03c af3d 6603 55be
00000070: 6e40 3bbf d9db 03bd d573 dbbe 5d4c f7bd
00000080: 4115 923e 403f a7bc c4c6 023e 65a5 b0be
00000090: 56ae d6be 0d16 c8be 52ea 92be 6d26 3f3e
000000a0: 4e54 af3d 7776 723d 91fc c0be 73f2 03bc
000000b0: cf55 f43e 8f84 df3e b76a b7be c7d9 76bd
000000c0: 5fb1 b83e 4a93 713e ad39 a83e 6cc5 233f
000000d0: decf 953e b13d 673e 9767 833e f38e 9abe
000000e0: c63a 40be 2e91 a53e 17ae 2c3f ca7a 12bf
000000f0: 4011 cb3d 621f 223f e29d 943e 5d50 b53e
00000100: 2f97 04bf 65d8 ad3e e367 3fbf 51b6 e6be
00000110: c3a6 0abf f446 0e3f 87af 9c3e 217d 3b3f
00000120: 5d1e c63e 1c33 583c 171e f63d d934 293f
00000130: 7926 12be 1fab 9f3e ee66 ae3c 0a47 07bd
00000140: 8b52 a13d ca8f b53e fc41 9fbe aec1 f1bd
00000150: a6d5 0bbf 06d7 063f ad8c 603d fb57 d53e
00000160: a42f 1e3f 6f8f 873e b369 27bf 3eb6 c93e
00000170: 02e5 5a3e 5afe 303d d50b f0be 9963 1bbf
00000180: 9ea6 ee3e 65ca 1abd 1c25 563d 3d04 78bd
00000190: b140 1e3f 9943 de3e fe11 e1bd e753 873d
000001a0: 6249 e4be 565a 01be 2aca 4e3e eae1 2abe
000001b0: 8c85 e4be a9de ebbe 391c 2fbf bda5 3d3e
000001c0: 1823 923c c3ae 28be 76a9 673e 7d49 143f
000001d0: 9caa ee3e 3fa2 78be 0be7 54be db79 b1bd
000001e0: d6d1 b93e f7f2 eabe 91c5 a73e 2f77 12be
000001f0: a873 c63e 35d5 a63e 75fe 093f ad8d 0d3f

arith.constant3 f4 [8]
0.330793 -0.040433027 -0.11070309 -0.16435707 0.3149286 0.28423202 -0.18049897 -0.07874921
00000000: b35d a93e 1a9d 25bd 4db8 e2bd 384d 28be
00000010: 523e a13e dc86 913e b9d4 38be 4447 a1bd

sequential_14_1/dense_42_1/BiasAdd/ReadVariableOp f4 [16]
-0.22855301 0.34958073 -0.14461572 0.052283682 -0.19731158 0.43011943 0.20393851 0.3221155
0.35239646 0.30020002 0.14306852 0.15712792 0.22230627 0.04252271 0.067740954 0.06350641
00000000: cd09 6abe 3ffc b23e 2516 14be 6a27 563d
00000010: 0c0c 4abe 9d38 dc3e 42d5 503e 53ec a43e
00000020: 4f6d b43e d1b3 993e 8e80 123e 24e6 203e
00000030: 41a4 633e 4b2c 2e3d c5bb 8a3d a60f 823d

sequential_14_1/dense_42_1/MatMul f4 [16, 2]
0.6605745 -0.53960156 0.39395714 -0.2974541 0.3170111 -0.2340232 -0.21504456 0.41965967
0.7267813 -0.7055469 -0.16930553 -0.53154075 -0.30861297 0.3039234 -0.62349594 -0.24073279
-0.65000427 -0.1355867 0.5111968 -0.9323479 -0.2305788 0.6501668 -0.8458924 -0.567305
0.59133726 0.6705718 -0.13911533 0.6602565 -0.09148056 0.76903456 0.12572755 0.5849637
00000000: 691b 293f 5423 0abf c0b4 c93e e74b 98be
00000010: 474f a23e c7a3 6fbe a434 5cbe a2dd d63e
00000020: 570e 3a3f b99e 34bf 6e5e 2dbe 0e13 08bf
00000030: 8502 9ebe d99b 9b3e 6e9d 1fbf a882 76be
00000040: ae66 26bf 3dd7 0abe cbdd 023f 5aae 6ebf
00000050: d91c 6cbe 5571 263f 688c 58bf e73a 11bf
00000060: e161 173f 98aa 2b3f 4074 0ebe 9206 293f
00000070: 295a bbbd 73df 443f b9be 003e 2ec0 153f
